…
│    └─Sequential: 2-1                   --
│    │    └─TemporalBlock: 3-1           43,690
│    │    └─TemporalBlock: 3-2           43,690
│    │    └─TemporalBlock: 3-3           43,690
│    │    └─TemporalBlock: 3-4           43,690
├─Linear: 1-2                            7,310
├─Sigmoid: 1-3                           --
=================================================================
Total params: 182,070
Trainable params: 182,070
Non-trainable params: 0
=================================================================TCN(
  (tcn): TemporalConvNet(
    (network): Sequential(
      (0): TemporalBlock(
        (conv1): Conv1d(85, 85, kernel_size=(3,), stride=(1,), padding=(2,))
        (chomp1): Chomp1d()
        (relu1): ReLU()
        (dropout1): Dropout(p=0.1, inplace=False)
        (conv2): Conv1d(85, 85, kernel_size=(3,), stride=(1,), padding=(2,))
        (chomp2): Chomp1d()
        (relu2): ReLU()
        (dropout2): Dropout(p=0.1, inplace=False)
        (net): Sequential(
          (0): Conv1d(85, 85, kernel_size=(3,), stride=(1,), padding=(2,))
          (1): Chomp1d()
          (2): ReLU()
          (3): Dropout(p=0.1, inplace=False)
          (4): Conv1d(85, 85, kernel_size=(3,), stride=(1,), padding=(2,))
          (5): Chomp1d()
          (6): ReLU()
          (7): Dropout(p=0.1, inplace=False)
        )
        (relu): ReLU()
      )
      (1): TemporalBlock(
        (conv1): Conv1d(85, 85, kernel_size=(3,), stride=(1,), padding=(4,), dilation=(2,))
        (chomp1): Chomp1d()
        (relu1): ReLU()
        (dropout1): Dropout(p=0.1, inplace=False)
        (conv2): Conv1d(85, 85, kernel_size=(3,), stride=(1,), padding=(4,), dilation=(2,))
        (chomp2): Chomp1d()
        (relu2): ReLU()
        (dropout2): Dropout(p=0.1, inplace=False)
        (net): Sequential(
          (0): Conv1d(85, 85, kernel_size=(3,), stride=(1,), padding=(4,), dilation=(2,))
          (1): Chomp1d()
          (2): ReLU()
          (3): Dropout(p=0.1, inplace=False)
          (4): Conv1d(85, 85, kernel_size=(3,), stride=(1,), padding=(4,), dilation=(2,))
          (5): Chomp1d()
          (6): ReLU()
          (7): Dropout(p=0.1, inplace=False)
        )
        (relu): ReLU()
      )
      (2): TemporalBlock(
        (conv1): Conv1d(85, 85, kernel_size=(3,), stride=(1,), padding=(8,), dilation=(4,))
        (chomp1): Chomp1d()
        (relu1): ReLU()
        (dropout1): Dropout(p=0.1, inplace=False)
        (conv2): Conv1d(85, 85, kernel_size=(3,), stride=(1,), padding=(8,), dilation=(4,))
        (chomp2): Chomp1d()
        (relu2): ReLU()
        (dropout2): Dropout(p=0.1, inplace=False)
        (net): Sequential(
          (0): Conv1d(85, 85, kernel_size=(3,), stride=(1,), padding=(8,), dilation=(4,))
          (1): Chomp1d()
          (2): ReLU()
          (3): Dropout(p=0.1, inplace=False)
          (4): Conv1d(85, 85, kernel_size=(3,), stride=(1,), padding=(8,), dilation=(4,))
          (5): Chomp1d()
          (6): ReLU()
          (7): Dropout(p=0.1, inplace=False)
        )
        (relu): ReLU()
      )
      (3): TemporalBlock(
        (conv1): Conv1d(85, 85, kernel_size=(3,), stride=(1,), padding=(16,), dilation=(8,))
        (chomp1): Chomp1d()
        (relu1): ReLU()
        (dropout1): Dropout(p=0.1, inplace=False)
        (conv2): Conv1d(85, 85, kernel_size=(3,), stride=(1,), padding=(16,), dilation=(8,))
        (chomp2): Chomp1d()
        (relu2): ReLU()
        (dropout2): Dropout(p=0.1, inplace=False)
        (net): Sequential(
          (0): Conv1d(85, 85, kernel_size=(3,), stride=(1,), padding=(16,), dilation=(8,))
          (1): Chomp1d()
          (2): ReLU()
          (3): Dropout(p=0.1, inplace=False)
          (4): Conv1d(85, 85, kernel_size=(3,), stride=(1,), padding=(16,), dilation=(8,))
          (5): Chomp1d()
          (6): ReLU()
          (7): Dropout(p=0.1, inplace=False)
        )
        (relu): ReLU()
      )
    )
  )
  (linear): Linear(in_features=85, out_features=85, bias=True)
  (sig): Sigmoid()
)